model.pth (torch, 180655 bytes, 10 tensors)

conv1.weight f4 [6, 1, 5, 5]
0.24050444 0.51345986 0.31855187 -0.2631109 -0.04412598 0.16451508 0.29875156 0.5127101
0.07449817 -0.048610695 -0.121318564 -0.024869723 0.25993568 -0.113292985 0.14645875 -0.14673637
-0.45015094 -0.034697566 -0.13565943 0.27238005 -0.24922116 -0.44288114 -0.44368634 -0.3440644
0.2773192 -0.062688164 -0.0029843855 -0.147219 0.009034034 0.2419545 0.33416286 0.19454844
-0.29781857 -0.06349882 -0.12669909 -0.21570595 0.19990727 -0.45514628 0.177565 -0.07602092
0.036057133 0.1692715 0.20424137 0.36179075 -0.11316004 -0.23590171 0.11637714 0.10235479
-0.3519819 -0.012260545 -0.38700652 0.48208922 -0.08219668 0.110802725 -0.06531518 -0.3412911
0.43879193 -0.07265191 -0.010943747 0.0034563213 -0.4572103 0.4437265 0.14020449 -0.17530422
0.038156472 -0.74784964 0.38101852 0.47315583 -0.17414732 0.048815683 -0.28694046 -0.18938611
0.29174134 0.15540032 -0.041639473 -0.06445729 0.07052261 0.30223098 0.13079174 -0.3489468
0.00664592 0.41047826 0.07743503 -0.062225185 -0.1876034 0.09596329 0.39770877 0.06418302
-0.15996292 -0.32642415 0.084638104 0.31636536 0.074862726 -0.06131416 -0.39279777 0.112731576
0.05150082 0.16170199 0.069937795 -0.42598337 0.14323708 0.2071347 0.090542816 0.0873636
0.20248708 0.01789563 -0.062634274 -0.06719522 0.039933216 -0.14864571 -0.051407177 -0.1305263
0.03510299 0.07178182 -0.027144458 -0.12214491 0.054141253 0.061183516 -0.0262387 -0.0551035
0.13088635 0.0908122 0.12164166 0.019803595 0.014687824 0.11632002 -0.04599991 -0.7629163
-1.4997727 -2.519267 0.32606223 0.2716526 0.12229879 -0.42051035 -0.62524223 0.068473734
0.19915764 -0.02653798 0.16302787 -0.13169031 -0.03179051 0.08130647 0.054833718 -0.0056399577
0.009892313 0.20403557 0.09885387 0.29123983 -0.10837958 0.0026482677
00000000: cc46 763e 1b72 033f 3b19 a33e 79b6 86be
00000010: 72bd 34bd a476 283e f7f5 983e f840 033f
00000020: 7f92 983d 021c 47bd de75 f8bd 97bb cbbc
00000030: 4a16 853e 2706 e8bd 48f9 153e 0f42 16be
00000040: 2f7a e6be 091f 0ebd 4eea 0abe 6675 8b3e
00000050: d533 7fbe 51c1 e2be db2a e3be 3629 b0be
00000060: c8fc 8d3e a762 80bd ae95 43bb 94c0 16be
00000070: 7c03 143c ecc2 773e 6517 ab3e b537 473e
00000080: ad7b 98be ab0b 82bd 68bd 01be 05e2 5cbe
00000090: 7eb4 4c3e ef08 e9be 99d3 353e dbb0 9bbd
000000a0: a5b0 133d 8255 2d3e a624 513e a33c b93e
000000b0: 73c0 e7bd 3890 71be 2357 ee3d 639f d13d
000000c0: f936 b4be 74e0 48bc b825 c6be 66d4 f63e
000000d0: bc56 a8bd 8aec e23d f7c3 85bd b5bd aebe
000000e0: 56a9 e03e 86ca 94bd 674d 33bc 7383 623b
000000f0: 7817 eabe 1f30 e33e c491 0f3e f382 33be
00000100: f649 1c3d 1373 3fbf dc14 c33e 7b41 f23e
00000110: ad53 32be f4f2 473d dce9 92be 6fee 41be
00000120: 1f5f 953e 4321 1f3e 278e 2abd 2f02 84bd
00000130: 286e 903d 05be 9a3e 45ee 053e 28a9 b2be
00000140: 05c6 d93b 352a d23e 4296 9e3d d6df 7ebd
00000150: 1b1b 40be 6788 c43d 7ca0 cb3e 6372 833d
00000160: 52cd 23be 1121 a7be be56 ad3d a4fa a13e
00000170: a151 993d 8e24 7bbd ca1c c9be d0df e63d
00000180: 86f2 523d 3595 253e 8c3b 8f3d 7e1a dabe
00000190: beac 123e 1e1b 543e 836e b93d b0eb b23d
000001a0: c658 4f3e db99 923c 6646 80bd a69d 89bd
000001b0: 0391 233d 9536 18be 5590 52bd b0a8 05be
000001c0: 27c8 0f3d 5902 933d 0e5e debc 1c27 fabd
000001d0: 38c3 5d3d 919b 7a3d 8bf2 d6bc 35b4 61bd
000001e0: 1207 063e bffb b93d 431f f93d 263b a23c
000001f0: 33a5 703c 3139 ee3d 676a 3cbd 7c4e 43bf
00000200: 8df8 bfbf ac3b 21c0 a1f1 a63e 0d16 8b3e
00000210: ca77 fa3d 224d d7be e00f 20bf f53b 8c3d
00000220: fbef 4b3e 2e66 d9bc c7f0 263e d3d9 06be
00000230: c436 02bd 0284 a63d 5299 603d 65cf b8bb
00000240: 5e13 223c b3ee 503e e673 ca3d 631d 953e
00000250: 1df6 ddbd 8f8e 2d3b

conv1.bias f4 [6]
-0.06007013 -0.027190903 0.0039827116 -0.044929165 -0.13814059 0.32458818
00000000: 190c 76bd 75bf debc 6881 823b a507 38bd
00000010: ba74 0dbe 6c30 a63e

conv2.weight f4 [16, 6, 5, 5]
0.156631 0.04261013 -0.6422548 -0.71412885 -0.2670593 -0.15681979 0.025899976 -0.32692832
-0.4097709 0.058208745 -0.18147397 0.046375472 -0.07045285 -0.15995525 0.17339975 0.13079348
0.1162416 0.103104725 0.027077524 0.48665833 -0.19934873 -0.09581357 -0.009279911 -0.117984004
0.01671047 -0.30051723 0.1981813 -0.24471375 -0.17970064 -0.17834634 -0.051025387 -0.19700474
0.21733324 -0.17463723 -0.17674464 0.1102014 -0.019531116 0.25330558 0.18602887 0.3634691
-0.0012610912 0.01074253 -0.041425183 0.035286203 0.1352898 -0.39457208 -0.14288671 0.098962806
0.017729724 0.15660858 -0.22594996 -0.29420093 0.28223258 -0.1419924 -0.33798733 -0.39391792
-0.14520328 0.23257121 0.06344109 -0.10444777 -0.013907997 -0.10319437 0.18142533 0.15379287
-0.26003996 0.17159347 -0.10915456 -0.10993481 -0.34297585 -0.33101743 -0.008361543 0.044196088
-0.025738258 0.08099671 -0.1819099 0.07672001 -0.06785164 0.24181515 -0.0067073186 -0.38322195
-0.4398684 0.034744482 0.24396102 -0.062257275 -0.35390294 -0.29468235 0.072678715 0.15344049
-0.15149786 -0.036214583 -0.26737982 0.06475974 -0.015931945 -0.06112081 0.3176684 -0.28937498
-0.14330792 -0.18121976 -0.10914086 0.3852628 -0.20726366 0.07338402 0.033978656 0.04718958
0.13775568 -0.25844297 -0.13006343 -0.06314654 -0.042168524 0.122446544 -0.10912056 0.053924352
0.0983769 0.03437445 0.2072986 -0.17525111 0.13035426 0.027006902 0.04151012 0.26191074
-0.17581989 0.19249485 0.25204107 0.29804218 0.41552123 0.2360902 -0.7676754 -0.24498561
-0.052547574 -0.13643548 0.15395626 -0.34950492 -0.15787882 -0.012160092 -0.1493599 -0.17599943
-0.12298073 0.19329809 0.16481455 -0.00070010463 -0.32663617 -0.6356153 0.31638664 0.15293787
0.07222269 -0.09186549 -0.91322905 -0.18288928 -0.10828582 0.19659485 -0.54595685 -0.29552424
0.039686915 -0.07620512 0.050086714 -0.21331495 0.109762356 -0.13465646 -0.70266914 -0.29875928
0.03485727 0.18795913 0.09902654 -0.258856 0.03153861 -0.032293085 0.0051181647 0.043148644
0.23261818 -0.13254601 -0.11597213 -0.08580517 0.28971335 0.7679358 -0.054534484 -0.110289834
-0.153517 -0.24388613 -0.5449221 -0.23994935 -0.23008442 -0.014791798 -0.19217558 0.19849361
0.10327136 0.026166469 0.32907963 0.31230518 0.16384077 0.10859634 0.0806852 -0.24591827
0.07933424 0.22083004 0.26821575 -0.016432375 0.32171112 0.18289584 -0.019386204 0.17770365
0.031176927 0.01674017 -0.3276986 -0.19135258 -0.3129158 0.16675831 -0.09161517 0.1396291
0.18566512 0.16768193 -0.006298036 -0.097211964 -0.061352007 0.16996339 0.06669972 0.028197207
0.029953714 -0.16315395 0.19028856 -0.019841097 -0.10669065 -0.0787944 -0.005137774 0.37537262
0.20974249 0.06766705 0.30663577 0.03833645 -0.057985682 -0.3072749 0.16376697 0.17044626
0.019437281 -0.06806781 -0.1431433 0.16733193 -0.026895707 0.13833186 0.038923267 -0.045341864
-0.0073544374 -0.014587164 0.06065811 0.17778756 -0.029779084 -0.17291877 0.3981962 0.2607536
-0.32459038 0.0607932 0.049340766 0.12727873 -0.119491525 -0.3323819 -0.2782322 -0.032507293
00000000: e063 203e f687 2e3d d06a 24bf 26d1 36bf
00000010: ffbb 88be 5e95 20be 302c d43c 2663 a7be
00000020: 7ecd d1be 4b6c 6e3d 50d4 39be 35f4 3d3d
00000030: 9549 90bd 4fcb 23be b48f 313e baee 053e
00000040: 1310 ee3d 9228 d33d afd1 dd3c 482b f93e
00000050: 1322 4cbe e839 c4bd c50a 18bc 99a1 f1bd
00000060: 65e4 883c 65dd 99be 0af0 4a3e 3e96 7abe
00000070: 7203 38be 6ca0 36be ffff 50bd 9cbb 49be
00000080: 9b8c 5e3e 1ad4 32be 8cfc 34be 46b1 e13d
00000090: b8ff 9fbc 45b1 813e 5a7e 3e3e 9f18 ba3e
000000a0: 334b a5ba 7001 303c 74ad 29bd 4488 103d
000000b0: 6989 0a3e 5a05 cabe e550 12be 03ad ca3d
000000c0: ed3d 913c 005e 203e 6d5f 67be 81a1 96be
000000d0: ca80 903e 7566 11be ad0c adbe 9caf c9be
000000e0: 2bb0 14be 2627 6e3e 67ed 813d b6e8 d5bd
000000f0: 5ede 63bc 9257 d3bd 90c7 393e e17b 1d3e
00000100: f523 85be 33b6 2f3e 6d8c dfbd 8025 e1bd
00000110: 889a afbe 1e7b a9be dafe 08bc f506 353d
00000120: 0ad9 d2bc 9ae1 a53d 9746 3abe 611f 9d3d
00000130: cdf5 8abd 649e 773e 11c9 dbbb ab35 c4be
00000140: 6e36 e1be 3b50 0e3d ebd0 793e 7c01 7fbd
00000150: c432 b5be 9be0 96be 94d8 943d 811f 1d3e
00000160: 4122 1bbe be55 14bd 02e6 88be c1a0 843d
00000170: b683 82bc d159 7abd 6fa5 a23e f528 94be
00000180: 50bf 12be ac91 39be 3e85 dfbd 2a41 c53e
00000190: ed3c 54be 5c4a 963d 342d 0b3d dc49 413d
000001a0: d30f 0d3e a352 84be 592f 05be f952 81bd
000001b0: e7b8 2cbd 41c5 fa3d 9a7a dfbd c8df 5c3d
000001c0: d479 c93d 39cc 0c3d 1646 543e 0775 33be
000001d0: 967b 053e 943d dd3c 8406 2a3d 2a19 863e
000001e0: 210a 34be 5f1d 453e 870b 813e fc98 983e
000001f0: 33bf d43e a1c1 713e 6086 44bf 82dd 7abe
00000200: 203c 57bd beb5 0bbe b6a6 1d3e 4ff2 b2be
00000210: fcaa 21be 1f3b 47bc cdf1 18be 3239 34be
00000220: 52dd fbbd efef 453e 25c5 283e 3a87 37ba
00000230: db3c a7be afb7 22bf 6efd a13e bf9b 1c3e
00000240: 7de9 933d f923 bcbd 61c9 69bf 5447 3bbe
00000250: f5c4 ddbd 2950 493e d4c3 0bbf f44e 97be
00000260: bf8e 223d 6e11 9cbd ba27 4d3d 3c6f 5abe
00000270: 16cb e03d 62e3 09be 20e2 33bf faf6 98be
00000280: 7fc6 0e3d 5c78 403e 6dce ca3d c688 84be
00000290: a12e 013d c145 04bd 47b6 a73b a2bc 303d
000002a0: 7633 6e3e 24ba 07be cc82 edbd 9fba afbd
000002b0: 4f55 943e 7197 443f 8d5f 5fbd a3df e1bd
000002c0: 8f33 1dbe 49bd 79be 0480 0bbf 48b5 75be
000002d0: 409b 6bbe 4c59 72bc adc9 44be e941 4b3e
000002e0: ef7f d33d 105b d63c 207d a83e 77e6 9f3e
000002f0: e0c5 273e c267 de3d 483e a53d 00d2 7bbe
00000300: fd79 a23d 4521 623e 9353 893e 309d 86bc
00000310: 52b7 a43e 0c49 3b3e d1cf 9ebc f2f7 353e
00000320: c166 ff3c ae22 893c 1cc8 a7be eef1 43be
00000330: 8036 a0be b1c2 2a3e bca0 bbbd eefa 0e3e
00000340: ff1e 3e3e d0b4 2b3e c15f cebb 1117 c7bd
00000350: 3e4c 7bbd e20a 2e3e dd99 883d d4fd e63c
00000360: 7e61 f53c d411 27be 01db 423e cc89 a2bc
00000370: a180 dabd f55e a1bd c65a a8bb d730 c03e
00000380: bcc6 563e 0695 8a3d 5dff 9c3e ae06 1d3d
00000390: 6582 6dbd 2353 9dbe 87b2 273e 7789 2e3e
000003a0: ef3a 9f3c 2367 8bbd 2894 12be 1059 2b3e
000003b0: 6354 dcbc dea6 0d3e 016e 1f3d 64b8 39bd
000003c0: 7efd f0bb 00ff 6ebc a374 783d f10d 363e
000003d0: 44f3 f3bc 9e11 31be 5fe0 cb3e 7f81 853e
000003e0: b630 a6be 4a02 793d 8b19 4a3d 5b55 023e
000003f0: f9b7 f4bd f62d aabe 7374 8ebe 5e26 05bd

conv2.bias f4 [16]
0.44961095 0.15868519 -0.031634793 -0.11926658 0.16573258 0.2462887 -0.06966898 0.47701976
0.33794805 0.32994616 0.03380607 -0.253734 -0.12717466 0.29910943 0.0011338046 -0.09848131
00000000: 6833 e63e 5f7e 223e 7c93 01bd 0942 f4bd
00000010: cdb5 293e 1b33 7c3e 9cae 8ebd ef3b f43e
00000020: 8707 ad3e b4ee a83e 3c78 0a3d 6ce9 81be
00000030: 133a 02be df24 993e 2b9c 943a 92b0 c9bd

fc1.weight f4 [120, 256]
0.020702098 -0.043341104 -0.0019917414 0.001583077 0.010920462 -0.030148814 0.050555088 0.019091934
-0.020401094 -0.00049131137 -0.014334038 -0.0138275325 0.029778222 -0.075570926 -0.036966078 -0.028493382
-0.025483374 -0.031787183 -0.039875165 -0.057280384 -0.0650807 -0.07042068 0.0021404033 -0.030374708
-0.04672645 -0.07107479 -0.021536507 -0.01949465 -0.06947916 -0.075652264 0.0009934312 -0.06410077
-0.031000609 0.030056644 0.01147697 -0.003137206 -0.053056274 0.007945069 0.022871923 0.02907682
-0.042442232 0.011946208 -0.028078815 -0.046773843 -0.069641605 -0.028588152 0.023007693 -0.00038120843
-0.060341693 0.030231657 -0.01064863 -0.036963146 -0.017713346 -0.003602009 -0.07661129 0.0029871864
-0.032733757 -0.0737539 0.0098930625 -0.022908729 0.0066238255 -0.0037655202 0.01098276 -0.086110696
-0.070357166 -0.090032145 0.0064277444 0.0147274 -0.009314612 -0.0009870606 -0.026213644 -0.060324565
-0.017871508 -0.10401135 0.01568238 -0.09092212 -0.055577323 -0.013447895 -0.05489942 -0.043401834
-0.047545508 -0.007862624 0.010541103 0.024913 0.004490168 -0.06450278 0.02556146 -0.0031640162
-0.0938075 0.016914587 -0.0646374 -0.04583322 0.0008477646 0.027593352 -0.013730233 -0.066211686
0.025077261 -0.042748094 0.042254202 0.03668932 0.011250928 -0.023270309 0.025551707 -0.008610293
-0.04723548 -0.027956128 -0.042579405 -0.018938638 0.039236315 -0.0036012083 -4.925579e-05 -0.00040326267
-0.0078232065 -0.07313635 -0.01855382 0.039304055 -0.026637238 -0.057300694 0.044354875 -0.048548356
0.050757233 -0.03923282 -0.04115363 0.007694573 0.011176024 -0.04728748 -0.058595378 -0.039148927
0.023663733 0.029732589 0.027360572 -0.041547406 0.014114907 -0.02603425 -0.056224063 -0.016984003
0.042720668 -0.078074336 -0.050603986 0.012648979 0.04949104 0.011380902 0.005908212 -0.050268468
-0.017775893 0.021902077 -0.014762014 0.013396874 0.010401964 0.017669827 0.051951542 -0.023436047
-0.015638173 -0.05913195 -0.0066829473 -0.062244385 0.00666184 -0.00538864 -0.013845451 0.036599137
-0.05900059 0.01265629 -0.021215715 -0.060771093 0.00054968946 -0.07009417 -0.069215 -0.025913725
-0.09851443 0.009078368 -0.005781027 -0.021689488 -0.052372273 -0.089738354 -0.043475345 -0.008894899
-0.045224868 -0.062886514 -0.026076332 -0.0784834 -0.0042403117 -0.07628591 -0.08226051 -0.021340039
-0.02851491 0.030495048 0.013559868 -0.04150326 -0.02116216 0.013428308 -0.054337904 0.03127277
-0.027599284 -0.037160475 -0.093970366 -0.073135324 -0.09552113 0.016581245 -0.0217316 -0.027285006
-0.047599506 -0.087536864 0.01599327 -0.052934907 -0.00036798566 -0.0032914267 0.011723148 -0.0012042874
0.045851532 -0.005059046 -0.024581889 0.046014506 -0.030232608 0.001191302 -0.00016674741 0.03659623
0.024463559 0.004809403 -0.0023256256 -0.03704376 -0.028468542 -0.05268015 -0.031215496 0.044095654
0.018487947 0.012100473 -0.081871204 -0.054000936 0.0066082645 -0.012255437 -0.00090467813 -0.019503513
0.018981818 -0.019085847 -0.00497791 -0.08485338 0.00038942287 -0.037025362 -0.029933058 0.003907829
0.028401293 0.04830303 0.022126108 -0.041990526 -0.010932475 0.035908848 0.00537771 -0.044534333
-0.018710755 0.0006195605 -0.0011357516 0.053468205 -0.0364931 -0.025965437 -0.018057384 -0.014949977
00000000: 7297 a93c 7186 31bd e087 02bb 407f cf3a
00000010: bdeb 323c a5fa f6bc da12 4f3d b066 9c3c
00000020: 3220 a7bc 59cb 00ba 50d9 6abc e08c 62bc
00000030: 75f1 f33c eec4 9abd be69 17bd f46a e9bc
00000040: 82c2 d0bc 4733 02bd 2454 23bd d69e 6abd
00000050: 0849 85bd b838 90bd 0246 0c3b 61d4 f8bc
00000060: 3c64 3fbd a98f 91bd 546d b0bc 3fb3 9fbc
00000070: 174b 8ebd 93ef 9abd 0536 823a 4447 83bd
00000080: fdf4 fdbc 5a39 f63c e709 3c3c 9599 4dbb
00000090: 8951 59bd 092c 023c e65d bb3c 8332 ee3c
000000a0: e8d7 2dbd 07ba 433c 8b05 e6bc ee95 3fbd
000000b0: 42a0 8ebd b331 eabc a17a bc3c eedc c7b9
000000c0: da28 77bd 61a8 f73c 9777 2ebc ab66 17bd
000000d0: 941b 91bc af0f 6cbb 61e6 9cbd acc4 433b
000000e0: d513 06bd 490c 97bd 8316 223c 16ab bbbc
000000f0: ad0c d93b f2c6 76bb 09f1 333c ce5a b0bd
00000100: 6b17 90bd c662 b8bd d49f d23b 314b 713c
00000110: 509c 18bc 4260 81ba ffbd d6bc e416 77bd
00000120: 4567 92bc e703 d5bd 5678 803c 6035 babd
00000130: 0ca5 63bd 8f54 5cbc 37de 60bd 1fc6 31bd
00000140: 14bf 42bd 3cd2 00bc 97b4 2c3c 5916 cc3c
00000150: 4222 933b 091a 84bd 4466 d13c 625b 4fbb
00000160: 261e c0bd 7690 8a3c 9d60 84bd 9dbb 3bbd
00000170: 853c 5e3a 740b e23c c5f4 60bc fe99 87bd
00000180: d46e cd3c a018 2fbd be12 2d3d 8a47 163d
00000190: d055 383c 60a1 bebc d051 d13c 3012 0dbc
000001a0: fe79 41bd 4004 e5bc be67 2ebd 3425 9bbc
000001b0: 42b6 203d 4002 6cbb 0098 4eb8 006d d3b9
000001c0: e82c 00bc 83c8 95bd 2efe 97bc 4afd 203d
000001d0: 5636 dabc 22b4 6abd 75ad 353d a4da 46bd
000001e0: d1e6 4f3d 98b2 20bd b590 28bd c222 fc3b
000001f0: a41b 373c 84b0 41bd b501 70bd a05a 20bd
00000200: 72da c13c c291 f33c 4723 e03c 9d2d 2abd
00000210: 3642 673c c845 d5bc 344b 66bd 0922 8bbc
00000220: defb 2e3d 70e5 9fbd 2046 4fbd aa3d 4f3c
00000230: 1eb7 4a3d f676 3a3c ad99 c13b 4fe6 4dbd
00000240: c09e 91bc fc6b b33c 60dc 71bc 907e 5b3c
00000250: 006d 2a3c 50c0 903c 24cb 543d f4fc bfbc
00000260: a01b 80bc 5834 72bd a0fc dabb f8f3 7ebd
00000270: 904b da3b 3093 b0bb 08d8 62bc fae8 153d
00000280: 9aaa 71bd 545c 4f3c 94cc adbc 1ceb 78bd
00000290: 0919 103a 888d 8fbd 98c0 8dbd 0549 d4bc
000002a0: efc1 c9bd 6fbd 143c c56e bdbb 27ae b1bc
000002b0: 4f84 56bd bec8 b7bd 3413 32bd e9bb 11bc
000002c0: b63d 39bd a5ca 80bd 089e d5bc e8bb a0bd
000002d0: 50f2 8abb ca3b 9cbd 3378 a8bd 4ed1 aebc
000002e0: 1a98 e9bc c0d0 f93c 352a 5e3c 53ff 29bd
000002f0: 445c adbc 6802 5c3c 6c91 5ebd e017 003d
00000300: e517 e2bc 9535 18bd 8973 c0bd f9c7 95bd
00000310: 95a0 c3bd 64d5 873c 7806 b2bc ce84 dfbc
00000320: b3f7 42bd 8746 b3bd 5104 833c 46d2 58bd
00000330: 33ee c0b9 fab4 57bb 7212 403c 2ed9 9dba
00000340: d1ce 3b3d 5bc6 a5bb f55f c9bc b579 3c3d
00000350: 60aa f7bc 7625 9c3a ebd8 2eb9 eee5 153d
00000360: cd67 c83c 3298 9d3b 8669 18bb 33bb 17bd
00000370: dc36 e9bc 24c7 57bd a4b7 ffbc a59d 343d
00000380: 0974 973c 1041 463c 17ac a7bd 1630 5dbd
00000390: 248a d83b 07cb 48bc ec27 6dba d5c5 9fbc
000003a0: c27f 9b3c ec59 9cbc bc1d a3bb 9cc7 adbd
000003b0: 742b cc39 e8a7 17bd 2c36 f5bc 3f0d 803b
000003c0: d4a9 e83c 66d9 453d d041 b53c 42fe 2bbd
000003d0: 201e 33bc 2815 133d 8037 b03b a269 36bd
000003e0: 4c47 99bc 006a 223a 80dd 94ba 7a01 5b3d
000003f0: ca79 15bd 78b5 d4bc 14ed 93bc c0f0 74bc

fc1.bias f4 [120]
-0.03803363 0.0030633532 0.012108026 0.104236394 0.147559 -0.19390887 -0.2173877 0.23330535
-0.07769761 -0.045248035 0.25154996 -0.24148618 -0.019751111 0.45955092 0.23345222 -0.09977171
0.3667519 0.19729543 0.1569674 0.053841442 0.14206752 -0.029327389 0.038998812 -0.2886803
0.0049278163 -0.12260007 -0.004952415 0.43529016 0.24694954 -0.053514205 0.05332426 0.11563917
-0.012265447 -0.07753737 0.39875793 -0.035149425 -0.0577393 -0.14981648 0.29647556 -0.052486915
-0.21090515 0.3448708 -0.06923239 -0.31495187 0.39921114 -0.009642623 -0.21843974 0.29970458
-0.085912056 0.1605676 0.15630943 0.07737588 -0.06803569 -0.021267274 0.032098617 0.090772904
0.08104647 -0.06270962 0.11925521 -0.0734015 0.16974027 -0.0788531 -0.047812976 0.071078114
0.34697673 -0.03757539 0.017871462 -0.01740255 0.027886875 0.09662027 0.16599128 0.38553113
-0.07287744 0.21937887 0.0425502 -0.056393173 -0.004588729 -0.04302796 0.20313337 -0.04756211
0.16114816 0.0015622736 0.028653027 0.25482073 -0.010141338 -0.19129445 -0.020398738 0.3516975
0.4385635 0.08712892 0.030579897 0.26234654 -0.0709569 -0.066815406 -0.31087434 0.2972795
-0.06933881 0.238176 -0.09121742 -0.07874558 0.06243358 -0.0843768 0.18174614 -0.007587466
0.06850691 -0.11119881 -0.03260005 0.036349032 0.036413 -0.07018908 0.32003236 0.4192116
-0.04017272 -0.05334471 0.106066264 0.07849075 -0.09799601 -0.104326665 0.1983843 0.37863353
00000000: 27c9 1bbd 8ac2 483b be60 463c e479 d53d
00000010: b519 173e 0c90 46be e29a 5ebe 99e7 6e3e
00000020: ed1f 9fbd 0156 39bd 28cb 803e 2748 77be
00000030: 15cd a1bc 424a eb3e 190e 6f3e 1c55 ccbd
00000040: e8c6 bb3e d007 4a3e 10bc 203e d888 5c3d
00000050: 267a 113e fe3f f0bc 38bd 1f3d e7cd 93be
00000060: 8579 a13b bf15 fbbd de47 a2bb 5ade de3e
00000070: 57e0 7c3e b631 5bbd 8a6a 5a3d 3bd4 ec3d
00000080: 03f5 48bc eacb 9ebd 002a cc3e d8f8 0fbd
00000090: 0b80 6cbd 7e69 19be a5cb 973e 85fc 56bd
000000a0: 85f7 57be e892 b03e b6c9 8dbd 5f41 a1be
000000b0: 6765 cc3e 18fc 1dbc abae 5fbe e172 993e
000000c0: a9f2 afbd d56b 243e 940f 203e 3f77 9e3d
000000d0: 4c56 8bbd b538 aebc d779 033d 25e7 b93d
000000e0: b1fb a53d e76d 80bd 133c f43d 8753 96bd
000000f0: 65d0 2d3e bc7d a1bd 8ad7 43bd 6791 913d
00000100: efa6 b13e a7e8 19bd 2c67 923c cb8f 8ebc
00000110: 0473 e43c d9e0 c53d 9ef9 293e 5664 c53e
00000120: c440 95bd dba4 603e 1e49 2e3d 87fc 66bd
00000130: 0c5d 96bb 163e 30bd 3202 503e 7dd0 42bd
00000140: 0604 253e 34c5 cc3a c1b9 ea3c dd77 823e
00000150: db27 26bc b1e2 43be 411b a7bc b211 b43e
00000160: 658b e03e a670 b23d b182 fa3c 4952 863e
00000170: da51 91bd 84d6 88bd ec2a 9fbe 0535 983e
00000180: 8201 8ebd 69e4 733e 33d0 babd 5d45 a1bd
00000190: 5bba 7f3d becd acbd a91b 3a3e 47a0 f8bb
000001a0: 5a4d 8c3d 34bc e3bd a187 05bd b9e2 143d
000001b0: cc25 153d 4bbf 8fbd 48db a33e e7a2 d63e
000001c0: 268c 24bd fc7f 5abd 4539 d93d c2bf a03d
000001d0: 22b2 c8bd 38a9 d5bd 4125 4b3e 41dc c13e

fc2.weight f4 [84, 120]
-0.030187963 -0.016298601 -0.033288542 -0.008781998 -0.0037470271 0.5124863 -0.056668762 -0.10014774
-0.23065463 -0.060935996 -0.19066809 -0.13856387 -0.040371783 0.1696168 0.27793342 0.17011175
0.22376594 -0.522942 -0.21613345 0.15636678 0.19021788 0.051788036 0.08943161 -0.42217112
-0.031099718 -0.0213374 0.07425505 0.3586479 0.30704898 0.080078475 -0.24935518 -0.018813318
-0.09706499 0.036068656 -0.06890832 0.051163364 -0.018316522 -0.31572506 0.19354844 -0.33870247
0.0015228209 -0.11796817 0.08100116 -0.24118434 0.08712654 -0.2584674 0.60587955 -0.01890181
0.021369245 0.019749146 0.19024396 0.052345976 0.2571067 0.022646535 0.29481852 -0.11266992
-0.127952 0.046353683 -0.614573 -0.2839203 0.1150965 -0.050703745 0.029375786 0.18988724
-0.22091888 0.003307635 -0.00094832457 0.06403399 0.106903985 -0.012699587 0.47290868 -0.12415787
-0.007884208 0.27394083 -0.04231472 -0.10056741 -0.3076528 -0.14878581 0.24581777 0.15798709
-0.2648358 -0.2548371 0.15468925 -0.559055 0.038317885 -0.07190464 0.26028946 -0.19704428
0.3637749 0.17949504 -0.011370346 0.16489585 -0.039195795 -0.2286447 0.016771905 0.22266434
-0.0509825 -0.006684862 0.018475972 -0.10604176 0.018493505 0.00013524594 -0.021468448 -0.027189707
-0.021702895 0.018815817 0.53631335 0.32142055 -0.07079373 -0.2035614 0.083177045 0.4206553
-0.014858931 0.057920456 -0.22779644 -0.18193194 -0.0542328 -0.114762805 -0.21146148 0.048409853
-0.015628755 -0.02927126 0.008835938 -0.08890262 -0.07735655 -0.0030737119 -0.06576186 -0.14188793
0.022465693 0.081395134 -0.0736024 -0.023795104 -0.055908315 -0.10110378 -0.032295685 -0.1567354
0.045121014 -0.05797444 -0.05777197 -0.11963795 0.03999974 -0.07631508 0.089460716 -0.016117305
-0.11529304 0.019202895 0.09015307 -0.10468843 -0.029514315 0.014923595 -0.005846833 -0.02532534
-0.043169603 0.026694134 0.0014975702 -0.05767643 0.0040108636 -0.10887182 -0.1423167 0.009588252
-0.027965419 -0.08984696 -0.063132994 0.08716002 -0.03528612 -0.006849222 0.036898565 0.03758297
-0.006772153 -0.06596806 0.053789053 -0.105048485 -0.025291106 -0.051181663 -0.10625401 -0.09889147
-0.043964833 -0.052677125 -0.1306089 -0.05211592 -0.14791806 0.04106523 -0.06575847 0.04633705
-0.02840708 -0.016694939 -0.061147735 0.06794858 0.016365288 -0.06218866 0.06851677 -0.069938876
-0.070272714 -0.037458975 0.031312883 -0.093828075 0.02954214 -0.15498392 -0.14892 -0.043420468
-0.13242155 -0.07442094 0.025688194 -0.01190035 0.007990733 0.0184699 -0.17535032 -0.06946427
-0.063217424 -0.016232893 -0.030001044 -0.104396515 -0.037629344 0.016035875 -0.08380564 -0.103695735
-0.06503825 0.00807955 0.07330331 0.054281414 0.052401 -0.0037822053 -0.08945353 -0.074643955
-0.08070583 -0.07449308 -0.0763288 -0.08638496 0.020602979 -0.066494204 0.025034191 -0.002464214
0.060962558 -0.00047716498 -0.16027221 -0.0989238 -0.02824156 -0.07584254 -0.0075016674 -0.09834033
0.07930387 0.02411174 -0.16543132 0.044122897 -0.07880885 0.076325946 -0.0781119 0.1302977
-0.053148165 -0.030552525 0.19100223 0.11578346 0.40375462 0.12107213 0.022248724 0.054179173
00000000: bf4c f7bc a584 85bc 9159 08bd 5fe2 0fbc
00000010: af90 75bb 4d32 033f 811d 68bd 421a cdbd
00000020: ba30 6cbe 0698 79bd 7f3e 43be b0e3 0dbe
00000030: e25c 25bd 07b0 2d3e 4a4d 8e3e c631 2e3e
00000040: e622 653e 87df 05bf 1652 5dbe 9d1e 203e
00000050: 7ac8 423e b11f 543d ec27 b73d d026 d8be
00000060: d6c4 febc c5cb aebc 0813 983d b3a0 b73e
00000070: 8635 9d3e 2f00 a43d f756 7fbe 631e 9abc
00000080: 02ca c6bd babc 133d ce1f 8dbd ad90 513d
00000090: 880c 96bc b7a6 a1be 9031 463e 696a adbe
000000a0: 6499 c73a 4c99 f1bd f0e3 a53d 07f9 76be
000000b0: 666f b23d d755 84be ec1a 1b3f f8d7 9abc
000000c0: 8e0e af3c f6c8 a13c 50cf 423e bc68 563d
000000d0: 7da3 833e 3a85 b93c 74f2 963e 7dbf e6bd
000000e0: d905 03be 5cdd 3d3d a854 1dbf 005e 91be
000000f0: b7b7 eb3d bbae 4fbd 7da5 f03c cd71 423e
00000100: 8f38 62be e8c4 583b fc98 78ba 4124 833d
00000110: 7af0 da3d ee11 50bc 1621 f23e 7b46 febd
00000120: c42c 01bc f941 8c3e 3352 2dbd 49f6 cdbd
00000130: ab84 9dbe 4f5b 18be a7b7 7b3e 5ec7 213e
00000140: 8f98 87be 027a 82be dc66 1e3e 3a1e 0fbf
00000150: 37f3 1c3d bd42 93bd a944 853e fac5 49be
00000160: b440 ba3e 8ccd 373e b04a 3abc 75da 283e
00000170: c58b 20bd d621 6abe 3c65 893c 1f02 643e
00000180: 07d3 50bd b00c dbbb ec5a 973c 6c2c d9bd
00000190: b17f 973c ced0 0d39 99de afbc f3bc debc
000001a0: 45ca b1bc a123 9a3c d54b 093f 3c91 a43e
000001b0: 4efc 90bd 6672 50be ba58 aa3d 2260 d73e
000001c0: e072 73bc 003e 6d3d 7843 69be 5e4c 3abe
000001d0: 3623 5ebd c308 ebbd 5c89 58be 6949 463d
000001e0: e007 80bc 48ca efbc 9cc4 103c 9412 b6bd
000001f0: 1c6d 9ebd 5470 49bb 27ae 86bd 124b 11be
00000200: f909 b83c 7eb2 a63d dbbc 96bd f3ed c2bc
00000210: 1e00 65bd 800f cfbd 7b48 04bd 3f7f 20be
00000220: d0d0 383d 9b76 6dbd 4da2 6cbd be04 f5bd
00000230: c4d6 233d 154b 9cbd 2e37 b73d 7008 84bc
00000240: c21e ecbd 644f 9d3c 2ca2 b83d e366 d6bd
00000250: 01c8 f1bc 1882 743c ca96 bfbb 1677 cfbc
00000260: 9cd2 30bd a8ad da3c 1e4a c43a 1f3e 6cbd
00000270: 906d 833b 30f8 debd 78bb 11be 0b18 1d3c
00000280: bc17 e5bc af01 b8bd df4b 81bd f480 b23d
00000290: 2e88 10bd 706f e0bb f322 173d 9af0 193d
000002a0: f0e8 ddbb 431a 87bd e951 5c3d a923 d7bd
000002b0: 4b2f cfbc dda3 51bd b49b d9bd 9c87 cabd
000002c0: 7814 34bd f8c3 57bd 57be 05be 8177 55bd
000002d0: d577 17be 0434 283d 60ac 86bd ebcb 3d3d
000002e0: f7b5 e8bc d3c3 88bc 0c76 7abd a028 8b3d
000002f0: 7f10 863c 89b9 7ebd 8552 8c3d 1d3c 8fbd
00000300: 24eb 8fbd 956e 19bd f041 003d ef28 c0bd
00000310: 5c02 f23c 1bb4 1ebe 7c7e 18be a9d9 31bd
00000320: 8499 07be 016a 98bd 0c70 d23c b0f9 42bc
00000330: 90eb 023c 304e 973c 098f 33be 4843 8ebd
00000340: 2378 81bd d8fa 84bc c0c4 f5bc d7cd d5bd
00000350: 3a21 1abd ab5d 833c 4ba2 abbd 6e5e d4bd
00000360: c632 85bd 1760 043c 0c20 963d 3056 5e3d
00000370: 6ea2 563d e0de 77bb 6a33 b7bd eede 98bd
00000380: 1949 a5bd d48f 98bd 4652 9cbd 99ea b0bd
00000390: 94c7 a83c 1d2e 88bd 8114 cd3c a77e 21bb
000003a0: e0b3 793d 002c fab9 661e 24be 9098 cabd
000003b0: d85a e7bc 5553 9bbd 8cd0 f5bb a866 c9bd
000003c0: 116a a23d fc85 c53c d466 29be 36ba 343d
000003d0: 8966 a1bd c750 9c3d 22f9 9fbd c36c 053e
000003e0: e4b1 59bd 4a49 fabc 1796 433e e11f ed3d
000003f0: edb8 ce3e aaf4 f73d f542 b63c fbea 5d3d

fc2.bias f4 [84]
0.2621875 -0.12869301 0.07276739 -0.047770202 -0.075954065 0.45527583 0.0022395528 0.08038966
0.13494375 -0.012893294 0.4110964 -0.11302746 0.1138535 0.12012037 0.27502424 0.31713894
0.24885093 0.31374863 -0.13689911 -0.1658404 0.06384351 0.026386775 0.34505904 -0.17301154
0.30157593 -0.08664178 0.30226365 0.15678357 0.33039334 0.19813453 0.10921721 0.19457808
-0.034689818 -0.34526494 0.08886358 -0.07678534 0.40819824 0.037117034 0.23697722 0.15577622
0.10349091 0.09693617 -0.17335363 -0.097216256 0.052810084 0.055407643 0.16520981 0.58264285
0.19547977 0.14393286 -0.15308401 0.22466563 0.051561985 0.10511221 0.40511653 -0.12544736
0.04041896 -0.26778346 -0.024825886 0.48026657 -0.14606477 0.17012215 0.3188785 0.236219
0.14101182 0.25240797 0.0012151882 0.29370192 0.20153388 0.46000108 0.1426731 0.45613307
0.02907962 -0.31319034 -0.072656475 0.30349085 0.23668864 -0.012284847 -0.04858085 -0.12669
-0.08050522 -0.045414936 -0.22792861 -0.14818642
00000000: 713d 863e 1ac8 03be 1207 953d b0aa 43bd
00000010: ce8d 9bbd ea19 e93e 76c5 123b 56a3 a43d
00000020: b22e 0a3e 653e 53bc 3a7b d23e f17a e7bd
00000030: 062c e93d ab01 f63d facf 8c3e 0960 a23e
00000040: c7d2 7e3e a9a3 a03e 482f 0cbe 11d2 29be
00000050: 63c0 823d 1429 d83c 94ab b03e f029 31be
00000060: 2968 9a3e 3f71 b1bd 4dc2 9a3e df8b 203e
00000070: 5129 a93e c7e3 4a3e 46ad df3d 7a3f 473e
00000080: e916 0ebd 91c6 b0be 1cfe b53d a241 9dbd
00000090: 5cff d03e 0808 183d 28aa 723e cd83 1f3e
000000a0: 0bf3 d33d 7886 c63d 9d83 31be 5119 c7bd
000000b0: 634f 583d 20f3 623d c32c 293e 1528 153f
000000c0: d92b 483e 2363 133e 0ec2 1cbe bf0e 663e
000000d0: a932 533d 1245 d73d 6f6b cf3e 4675 00be
000000e0: 5a8e 253d ea1a 89be a85f cbbc 80e5 f53e
000000f0: 0192 15be 8034 2e3e 0b44 a33e 65e3 713e
00000100: 6765 103e 9e3b 813e f346 9f3a 1960 963e
00000110: e65e 4e3e 4385 eb3e e618 123e 468a e93e
00000120: 6238 ee3c 7c5a a0be ebcc 94bd 2763 9b3e
00000130: 825e 723e 6246 49bc b7fc 46bd 06bb 01be
00000140: ecdf a4bd 0305 3abd 1e66 69be 2ebe 17be

fc3.weight f4 [10, 84]
-0.48526278 -0.1368036 0.10669729 0.16050889 -0.00712889 -0.055749428 0.24978083 0.19289365
-0.1019409 0.12136454 0.21915908 0.017354986 0.086735375 -0.092759155 -0.27376583 0.15619388
0.08130642 -0.731838 -0.18458946 -0.15527186 -0.016249722 -0.07286537 0.36782867 -0.15900134
0.3027222 -0.11734572 0.0920276 -0.9284066 0.12869464 -0.31484812 -0.384447 -0.36674988
0.044756923 0.056039244 0.18150088 -0.53183967 0.17791913 -0.16666931 0.09303646 0.09714088
0.06130506 0.03416658 0.080300525 -0.56348735 -0.14215083 0.20784767 -0.18687296 -0.012491983
-0.29887858 0.19143052 -0.13315913 -0.07600666 -0.3138428 0.24820596 -0.009381187 -0.21082583
-0.76721275 -0.005523143 -0.15450065 0.11287575 -0.09319091 0.085119195 0.091774546 0.21509537
0.29428113 0.106605224 -0.4076885 0.13894472 -0.13649456 -0.2558873 -0.1693176 -0.86882013
0.033532042 0.0621883 0.12360888 -0.23667262 -0.39377284 -0.06777215 0.0027360665 0.16700588
-0.45849833 -0.032390248 -0.12768899 -0.3900821 0.32804093 -0.0060146907 -0.42108777 0.24731827
-0.00047025213 -0.5367561 -0.43837744 -0.4053567 0.110850506 -0.105759285 -0.61847293 -0.029456174
-0.065639 0.3782986 -0.02351255 -0.055701584 -0.7080757 -0.5005782 -1.2665657 -0.23963052
0.30507118 0.3732407 -0.32516584 -0.40929815 0.027652059 0.28962642 -0.5494262 -0.7204914
-0.5208195 0.2185968 -0.24666059 0.12783733 0.0018004475 -0.7651012 0.104459755 0.47378024
-0.07009366 -0.7221592 -0.37472028 -0.56901795 -0.49080503 -0.47763515 -0.08384631 0.04056934
-0.6706546 0.0006160657 0.35551327 -0.40461943 0.16010462 0.2669459 -0.016973462 -0.3966894
-0.43860695 -0.29077822 0.013684684 0.13885796 -0.55221164 0.32643738 -0.5024681 -0.29855275
-0.026363906 -0.9488827 -0.396674 0.18515973 0.20962311 -0.4544253 -0.28858364 -0.23809333
-0.6892234 -1.0458053 -0.597926 -0.27814892 0.15130311 -0.40385434 -0.5673245 -0.10283038
0.19498071 -0.30097884 -0.6681471 -0.7337853 -0.90762836 -0.44448307 -0.4160084 0.18954594
0.10400332 -0.027763158 0.1295897 -0.44985005 0.07595484 -0.07229665 -0.17889199 -0.46208104
0.31854805 -0.6386889 0.009744184 -0.07686169 -0.10500751 -0.51434296 -0.60050803 -0.3897733
0.08906264 -0.17432304 -0.39648974 -0.23248903 -0.38779935 0.12408324 0.17831197 -0.08602933
0.26879242 0.18042564 -0.16939808 -0.35849506 -0.16248256 -0.49981725 -0.119905934 0.10907662
0.04794304 0.018032895 0.2611297 -0.10047925 0.1710995 -0.29685014 -0.27581567 0.05800261
0.08024943 -0.5663737 0.041271996 -0.06357118 -6.244635e-05 -0.052938145 -0.039657418 0.04177653
-0.34572598 -0.537515 -0.07910368 0.33928192 0.0032395402 -0.055440307 0.103805676 0.030433642
-0.8668743 0.07481996 -0.006661631 0.08443375 -0.0726214 0.14490217 -0.04385613 -0.38402632
-0.008303855 0.15111138 -0.003121413 0.06831393 -0.0070882426 0.09843238 0.14941344 0.17567982
0.01564153 0.12120847 -0.38623106 0.09698369 -0.06643776 -0.30363962 0.09372647 -1.181357
0.26886767 0.14743106 -0.025095657 -0.23211248 -0.053828303 -0.10184334 -0.48924312 -0.077149786
00000000: 5d74 f8be 3e16 0cbe 1c84 da3d 715c 243e
00000010: 7799 e9bb 8359 64bd 8cc6 7f3e ea85 453e
00000020: 64c6 d0bd f98d f83d 3d6b 603e 0b2c 8e3c
00000030: 51a2 b13d 83f8 bdbd 092b 8cbe 4af1 1f3e
00000040: fb83 a63d bc59 3bbf 0505 3dbe 96ff 1ebe
00000050: 231e 85bc 703a 95bd 0a54 bc3e 3fd1 22be
00000060: 67fe 9a3e f452 f0bd f778 bc3d 0eac 6dbf
00000070: 87c8 033e c633 a1be 3dd6 c4be a4c6 bbbe
00000080: 0953 373d 6889 653d 5edb 393e a526 08bf
00000090: 6f30 363e 5cab 2abe e689 be3d ccf1 c63d
000000a0: 041b 7b3d 41f2 0b3d 9a74 a43d b540 10bf
000000b0: fd8f 11be 05d6 543e a05b 3fbe 2dab 4cbc
000000c0: 9d06 99be 5d06 443e de5a 08be 61a9 9bbd
000000d0: 01b0 a0be b429 7e3e 8db3 19bc bae2 57be
000000e0: 0e68 44bf 7bfb b4bb 6b35 1ebe 672b e73d
000000f0: e0da bebd f952 ae3d 4bf4 bb3d f641 5c3e
00000100: 04ac 963e d753 da3d 8cbc d0be 8647 0e3e
00000110: 3bc5 0bbe a903 83be 9861 2dbe ff6a 5ebf
00000120: e558 093d 29b9 7e3d a726 fd3d 4f5a 72be
00000130: 989c c9be 20cc 8abd 944f 333b 9703 2b3e
00000140: 4bc0 eabe a3ab 04bd e7c0 02be d7b8 c7be
00000150: fbf4 a73e e216 c5bb d198 d7be 0041 7d3e
00000160: 2c8c f6b9 d968 09bf 0273 e0be ea8a cfbe
00000170: 9705 e33d 5398 d8bd 3e54 1ebf 134e f1bc
00000180: bd6d 86bd 5bb0 c13e 649d c0bc 5827 64bd
00000190: 7344 35bf e525 00bf d31e a2bf b461 75be
000001a0: 4a32 9c3e 6819 bf3e 237c a6be 878f d1be
000001b0: 9286 e23c ea49 943e 32a7 0cbf 2072 38bf
000001c0: 6d54 05bf d7d7 5f3e 9894 7cbe cae7 023e
000001d0: fefc eb3a acdd 43bf ffee d53d 5393 f23e
000001e0: 448d 8fbd 6ddf 38bf 56db bfbe 29ab 11bf
000001f0: cc4a fbbe 988c f4be 9db7 abbd 092c 263d
00000200: 05b0 2bbf 787f 213a d605 b63e 472a cfbe
00000210: 77f2 233e 22ad 883e ee0b 8bbc df1a cbbe
00000220: 1791 e0be e2e0 94be ba35 603c c830 0e3e
00000230: be5d 0dbf cd22 a73e c0a1 00bf e8db 98be
00000240: 1ef9 d7bc fae9 72bf db18 cbbe 839a 3d3e
00000250: 71a7 563e 6faa e8be 3cc1 93be bdce 73be
00000260: f270 30bf f3dc 85bf ae11 19bf 8969 8ebe
00000270: 34ef 1a3e ffc5 cebe 2e3c 11bf bc98 d2bd
00000280: 06a9 473e e619 9abe b00b 2bbf 5ad9 3bbf
00000290: 555a 68bf 4993 e3be 0eff d4be 5518 423e
000002a0: b1ff d43d 906f e3bc 2ab3 043e bf52 e6be
000002b0: 368e 9b3d 4410 94bd 762f 37be e395 ecbe
000002c0: bb18 a33e 1e81 23bf 12a6 1f3c a969 9dbd
000002d0: 2d0e d7bd fbab 03bf e5ba 19bf 5e90 c7be
000002e0: 7966 b63d bd81 32be b400 cbbe 9b11 6ebe
000002f0: a38d c6be 5b1f fe3d 6a97 363e 2530 b0bd
00000300: 299f 893e 80c1 383e b176 2dbe aa8c b7be
00000310: d461 26be 0ce8 ffbe 3e91 f5bd 9063 df3d
00000320: ec5f 443d b9b9 933c cbb2 853e 11c8 cdbd
00000330: b534 2f3e befc 97be b637 8dbe 2594 6d3d
00000340: d059 a43d defd 10bf d30c 293d 9b31 82bd
00000350: a1f5 82b8 abd5 58bd d16f 22bd de1d 2b3d
00000360: ff02 b1be 959a 09bf 1c01 a2bd 5cb6 ad3e
00000370: 774e 543b 6015 63bd 1298 d43d f94f f93c
00000380: 79eb 5dbf 353b 993d d049 dabb 9aeb ac3d
00000390: 87ba 94bd 3c61 143e 7ca2 33bd 199f c4be
000003a0: e40c 08bc f1bc 1a3e 9f90 4cbb 2ce8 8b3d
000003b0: 7d44 e8bb ea96 c93d d6ff 183e 69e5 333e
000003c0: aa22 803c 253c f83d 14c0 c5be 639f c63d
000003d0: 8510 88bd a776 9bbe aaf3 bf3d b536 97bf
000003e0: 06a9 893e 2bf8 163e 6895 cdbc e5ae 6dbe
000003f0: 117b 5cbd 3e93 d0bd 137e fabe b500 9ebd

fc3.bias f4 [10]
-0.18154827 -0.48924297 0.24440157 0.44009325 -0.3050399 -0.074091576 0.014860764 0.2335558
0.1984369 -0.2061525
00000000: cae7 39be 0e7e fabe 6844 7a3e e753 e13e
00000010: 312e 9cbe 53bd 97bd 907a 733c 4029 6f3e
00000020: 0b33 4b3e a419 53be
